moe_forecaster.pt (torch, 594226 bytes, 24 tensors)

encoder.weight_ih_l0 f4 [384, 17]
000000 a8 53 b1 bc 27 6c 35 3d 97 dc d8 3b 49 e6 c2 3d
       -0.021646336 0.044292595 0.0066180932 0.0951658
000010 4b 1e 42 bd 2e 69 97 3c 51 a4 be bc 6e 0e b9 3c
       -0.04739217 0.01848277 -0.023271712 0.022589888
000020 af ff 25 bb c3 ba bc bc c2 2f cd 3c be a9 94 bc
       -0.0025329401 -0.023038274 0.025047187 -0.018147346
000030 28 c7 51 3c 0b a2 c1 3c ba 35 c6 3c c6 19 e0 bc
       0.01280383 0.023636838 0.02419554 -0.02735604
000040 74 6e 88 3d 52 86 b6 bd b2 f7 3a bd 25 a0 b6 3c
       0.06661692 -0.08912338 -0.045646377 0.02229316
000050 8b 25 04 bb 9a 38 8a 3c 6c 56 15 bc ef 08 c2 bd
       -0.002016398 0.016872693 -0.009114843 -0.0947436
000060 53 40 5b bd 79 6b 84 bd 92 f5 25 bd c0 80 47 bc
       -0.05352814 -0.06465811 -0.040517397 -0.0121766925
000070 05 5b 2c bd d3 2b 8a 3c ad e5 83 bd 80 bb 9e bd
       -0.04207899 0.0168666 -0.064402916 -0.077506065
000080 3a 34 6e 3d 1c 80 56 bd a0 1e 9a bd 8f 7c cc bd
       0.058155276 -0.05236827 -0.075253725 -0.09984695
000090 87 f5 d3 bc d1 83 0e 3e 61 4f 6b bb 86 dc c5 bd
       -0.025873912 0.13917471 -0.0035905468 -0.09661202
0000a0 87 74 b7 bd 74 6c a2 3d 05 59 df 3b 36 e1 ae 3d
       -0.08957773 0.07930842 0.006816032 0.08539049
0000b0 74 63 8d 3c 55 a7 49 bd 48 c1 19 bd 9f 57 e8 3d
       0.017259337 -0.049231846 -0.037537843 0.113448374
0000c0 d6 81 05 3e 48 56 8b bd cf 29 9e 3d cd 97 b3 bc
       0.1303781 -0.06803566 0.07722818 -0.02192297
0000d0 42 20 5a 3d f8 0e 5e bd 1a 7d 14 3b 22 17 57 3c
       0.05325342 -0.054213494 0.0022657574 0.013128074
0000e0 fa 65 8e bd 96 cf b9 bd 64 8c ee 3d 6f 36 cf 3c
       -0.06953044 -0.09072797 0.11647871 0.02529451
0000f0 10 5d ab bd 09 fa 0e 3d 9a 32 65 bd 43 b7 97 bd
       -0.0836736 0.03490642 -0.05595646 -0.07408001
000100 a7 13 2a 3c 55 49 f4 ba eb 92 e9 3d 0f f4 c0 3d
       0.010380662 -0.0018637577 0.114049755 0.094215505
000110 57 1d 3d 3d db bb ab 3c d5 4b 6d bd 70 3c 85 3d
       0.04617056 0.0209636 -0.057933647 0.06505668
000120 25 2f 84 3d 62 6b 3c 3d 6a 8a d4 bc 4f bf ce 3c
       0.064543046 0.046000846 -0.025944907 0.025237707
000130 0c 70 1a 3e 9d 17 ec bd 28 13 15 3e 5e c9 9d 3d
       0.15081805 -0.115279414 0.14558089 0.07704423
000140 15 c2 b3 3d 67 26 98 3d c6 4e 10 3d c5 2d 11 bd
       0.087772526 0.074292 0.035231374 -0.03544404
000150 54 85 b2 3d a7 91 bf 3d 83 0f 9d ba 13 5e 14 3c
       0.087168366 0.09353953 -0.0011982772 0.009055632
000160 11 b7 f5 bd c2 1f 22 3d 98 b4 ca 3d 91 db 1f 3e
       -0.11997808 0.039581068 0.09897727 0.15611102
000170 7e f4 e0 bd 76 43 fe bc 20 e4 87 3d af 82 ca bc
       -0.10984133 -0.031038027 0.06635308 -0.024720518
000180 e1 33 55 3d 18 d7 76 bd 48 1e b5 bd 4f bc aa bd
       0.05205143 -0.060263723 -0.08843666 -0.08336698
000190 c9 e9 92 bc ff e8 98 3d 76 9a 97 bd 1b f7 40 bd
       -0.017933743 0.074663155 -0.07402508 -0.04711066
0001a0 9e d2 28 bd 02 c9 2d bd e6 95 5e bc 11 57 d2 bd
       -0.041216485 -0.042428024 -0.013585543 -0.10270513
0001b0 14 89 a5 bd 5f d7 d5 3d e2 a9 5e bd 61 b7 ee 3b
       -0.08082786 0.104414694 -0.05436123 0.007285044
0001c0 f7 97 42 bd 03 e8 84 bc 54 c6 8a 3d c0 95 6f bb
       -0.047508206 -0.016223913 0.06776109 -0.0036557764
0001d0 09 af bd bc 24 19 d5 3d e9 f1 07 bd 22 47 97 bd
       -0.023154752 0.10405186 -0.033189688 -0.073866144
0001e0 c4 97 c4 3c 1b 5e b6 3b 33 99 a1 3d a8 92 77 3d
       0.023998149 0.0055654175 0.078905486 0.060442597
0001f0 4d 79 3a 3c d3 19 0b be 36 5c d7 bd bb f0 1e bd
       0.011381459 -0.1358407 -0.10515635 -0.038803797
000200 0a 00 bc 3d 0f f7 c4 bc 8f b5 9e bd f0 b9 21 bd
       0.09179695 -0.024043588 -0.07749473 -0.039483964
000210 31 0e 73 3c 3c 93 57 bd 52 4b 4c 3d ff 26 a5 3d
       0.014834926 -0.052630648 0.04987652 0.080640785
000220 44 b8 a9 bd 7b 91 4e bd b3 b7 5b 3d c9 be 05 3d
       -0.08287099 -0.05043171 0.053641986 0.03265265
000230 31 80 cc bb e2 ab 0a 3d 4a de d2 bc b2 76 0c bd
       -0.0062408675 0.033855326 -0.025740761 -0.034292884
000240 6f 4d 89 3d f3 57 90 3d 88 b6 86 bd ac c7 45 bd
       0.067042224 0.07048025 -0.06577784 -0.048286125
000250 b9 15 0d 3e 0e 15 d0 3d f1 13 94 bd 3b 42 95 bc
       0.13777818 0.10160266 -0.07230366 -0.018220058
000260 93 2e a4 3c 1e 82 65 3d da f3 9b 3c ce b0 91 3d
       0.02004174 0.056032293 0.019037176 0.07113801
000270 4a 7a 6f 3c 8e 30 53 bc 85 c8 ae 3d 90 cf d5 bd
       0.014616558 -0.012889994 0.0853434 -0.1043998
000280 a7 77 5b 3b 40 ab 06 3e ea 7a 85 bd a1 3c 96 3d
       0.0033488066 0.13151264 -0.065175846 0.07335783
000290 7f 47 b0 3c f9 e6 b6 bc 62 f4 e0 3d b5 12 e9 3c
       0.021518467 -0.022326933 0.10984112 0.028451303
0002a0 ba 19 9d 3c 16 61 d4 3d 46 de c5 bd be 5c 37 3d
       0.019177306 0.1037008 -0.09661536 0.04476618
0002b0 e3 94 c7 3d 95 50 49 3d 57 7f 4e bc 72 87 a2 bd
       0.09745195 0.049149115 -0.012603602 -0.079359904
0002c0 bb 37 12 bd c4 dc b5 3c 9e fa e5 3c 05 26 df bc
       -0.03569768 0.022199996 0.028073605 -0.027239809
0002d0 82 00 f9 bc a3 77 a3 bd ee 1f 9a 3d da 6b d0 bc
       -0.03039575 -0.07981803 0.07525621 -0.025442053
0002e0 55 4e 1f bd 8e bd 8f 3c 46 04 88 3d 73 b4 ea bd
       -0.038893063 0.017546441 0.0664144 -0.11460199
0002f0 d5 3f 95 3d 7c e3 87 3c a0 d7 32 bc f6 c8 95 bc
       0.072875656 0.016587965 -0.010915667 -0.018284302
000300 7f 7d 04 be 31 44 d4 bd 5a 42 7e bd 4d 8e be 3d
       -0.12938498 -0.10364569 -0.062074997 0.093044855
000310 96 ae 0f bd b9 61 b8 bd 14 44 da 3d 66 7a 9d 3d
       -0.035078607 -0.09003014 0.10657516 0.07689361
000320 6a 44 29 3d e4 6d af bb a5 5d f2 3c 99 41 99 3d
       0.04132501 -0.005353676 0.029585669 0.07483215
000330 2b 6f 32 bd 48 57 20 3b 26 80 f6 3d bf f7 9d bc
       -0.04356305 0.0024466086 0.12036161 -0.019283174
000340 0d 06 a6 bd e3 61 03 bc a1 50 0d 3d b9 a5 26 3e
       -0.08106623 -0.0080189435 0.03450072 0.16274156
000350 02 5a 39 ba 09 3a c2 3d 50 17 36 bc 28 50 de bc
       -0.0007070602 0.094837256 -0.011113957 -0.02713783
000360 e9 45 f1 3d 8f c4 e6 3d 00 e3 33 3d a1 a7 4a 3d
       0.117809124 0.11267959 0.043917656 0.04947627
000370 f9 b0 16 bd 36 f2 81 bd 6a cd f1 3a 0d 5e b0 3d
       -0.036789868 -0.06345026 0.0018448059 0.08611689
000380 79 8e 83 3c 20 7e e9 bd 73 e4 84 bd 9e 47 a3 bd
       0.016059147 -0.114010096 -0.06488886 -0.07972644
000390 2a 18 13 bd 37 5e 8a 3d 08 b7 fb 3d fa b2 60 3d
       -0.035911717 0.06756251 0.1229077 0.054858185
0003a0 12 4e e4 3d d7 31 ad ba 05 fa 80 3d ea e2 93 3c
       0.11147703 -0.0013213706 0.062976874 0.018052537
0003b0 84 09 fd ba 46 b4 1d bd 71 4b 49 3a b7 eb a9 bd
       -0.0019305204 -0.038502 0.0007678783 -0.08296912
0003c0 0d 1e 11 3d 27 95 35 bc 41 e9 85 3d a7 d8 1f bb
       0.03542905 -0.011082924 0.0653863 -0.002439061
0003d0 2d e9 5b bd cd da f5 bc 59 08 92 bc 3a 2b 66 3b
       -0.05368917 -0.030011559 -0.017826246 0.003512098
0003e0 19 a3 da bd ff a5 25 be 47 45 cd bb f2 7f bd 3d
       -0.1067564 -0.16176604 -0.006264362 0.09252919
0003f0 62 f0 37 bd 38 d0 f8 bc 41 a8 88 3c a0 45 02 3d
       -0.04490698 -0.030372724 0.016681792 0.03180468

encoder.weight_hh_l0 f4 [384, 96]
000000 05 07 1e 3d ff eb bc 3c 04 5f d5 3d aa ac 7c bd
       0.038580913 0.02306175 0.104185134 -0.061688103
000010 d1 58 ac bd fc 61 90 bc 7d 33 e9 bb 95 2b a9 bb
       -0.08415378 -0.017624848 -0.0071167336 -0.005162666
000020 17 c0 d0 3d d3 4a cf 3b f9 65 b0 bd 29 c0 8e 3d
       0.10192888 0.0063260584 -0.086132 0.069702454
000030 94 be 3c bd 23 70 4f bd 4a bc 79 bd 2d 7d a2 3d
       -0.046080187 -0.05064405 -0.060970582 0.07934032
000040 b4 39 16 bd 06 ac 17 bd b4 94 ab 3d 30 e7 36 bb
       -0.036676124 -0.03702929 0.08377972 -0.0027908795
000050 f0 d1 11 be 9b 52 91 bc 07 67 2b 3d ec 4d 41 3d
       -0.14240241 -0.017739585 0.0418463 0.047193453
000060 91 3c 21 3e a8 81 51 bd b9 7f f3 bb a7 df 00 bd
       0.1574576 -0.05114904 -0.007430997 -0.03146329
000070 36 0d 00 bd 51 4e 3d 3c 71 ad 0c 3e c0 1b fc bd
       -0.0312626 0.011554317 0.13738038 -0.123099804
000080 41 62 d5 3d 40 3a 08 be ea e1 41 3d e7 b9 73 bc
       0.10419131 -0.1330347 0.04733459 -0.014875866
000090 d8 11 c3 3d 88 07 da bc 6a c9 d2 bb 43 ed 8a 3d
       0.09524888 -0.02661492 -0.006432702 0.06783535
0000a0 75 bf a6 3c 2e 35 8b bd 05 2d c9 bd 6f a5 a6 3c
       0.020354966 -0.067972526 -0.0982304 0.020342557
0000b0 15 5f 95 3d 97 34 e1 3d 8c a9 c2 bc c7 38 ae 3d
       0.07293526 0.10996359 -0.023762487 0.08506923
0000c0 29 b7 ec 3c 9b 96 ac 3d 39 09 0b bd 7a 31 03 bb
       0.028895931 0.08427163 -0.033944342 -0.0020018504
0000d0 01 17 e5 bc 91 16 9f bd 6e fc 95 bd c9 22 94 bc
       -0.02796507 -0.07767976 -0.07323538 -0.018082993
0000e0 b3 23 81 bc 9c ad 2b 3d d2 28 71 3d 5e 66 a4 bd
       -0.015764093 0.041913614 0.05887682 -0.080273375
0000f0 f3 3f ac bd 38 9f 6c bd 27 db 65 bd 24 f1 3b 3e
       -0.08410635 -0.05776903 -0.056117203 0.18353707
000100 0c 05 19 bc 32 d1 3e 3e c8 14 12 be 52 b1 cb bd
       -0.009339582 0.18634489 -0.1426574 -0.099459305
000110 62 e0 ca bd e4 c8 44 3d db 7c 01 3d 9a d3 a7 3c
       -0.09906079 0.048043147 0.031613212 0.020486642
000120 a2 4c d6 3d d7 f8 01 3e d2 87 8b 3d 8b 6f 51 bd
       0.10463835 0.12692581 0.06813015 -0.051131766
000130 bf c1 8e bd 5e bd e6 3c 9f 95 0b bd 68 9a 27 bb
       -0.06970548 0.02816647 -0.034078237 -0.002557421
000140 ca d9 be 3d 9b 02 68 3c 31 a0 52 3c d1 a1 b4 bd
       0.09318884 0.014160777 0.012855575 -0.088199265
000150 d8 d3 33 3d 2c a1 97 bc f5 46 06 3e 28 5c 4c 3d
       0.0439032 -0.01850947 0.13113005 0.049892575
000160 fb 0c 0a bd 42 01 19 3d 0d 64 a0 bd 86 04 96 3d
       -0.033703785 0.037354715 -0.07831583 0.073250815
000170 9a b5 9c bc c7 12 e4 bc 52 d7 82 bd 2d 4c ea bd
       -0.019129563 -0.027840985 -0.06388725 -0.114403106
000180 43 14 8d bd f4 a0 13 bc a6 2f 0f 3d 23 5f 89 bd
       -0.0688863 -0.009010542 0.03495755 -0.06707599
000190 37 0c 08 3e 0a fe 7c bc 9d 36 80 bc e8 2c 84 3d
       0.1328591 -0.015441427 -0.015651042 0.06453878
0001a0 08 b4 f2 3d 6f b6 2f 3d ff 5f 81 bd de 17 eb bb
       0.118507445 0.04289859 -0.06317138 -0.007174476
0001b0 94 6b a7 3a 32 0d 02 3d b4 89 d3 3d 72 ed a0 bc
       0.001277315 0.031750865 0.10328999 -0.019644473
0001c0 f4 f9 31 bd 04 58 80 3d 64 bc e5 bd 7b f8 35 bd
       -0.043451265 0.06266788 -0.11217573 -0.044426423
0001d0 e9 68 06 3e b7 e2 76 bb 9f d3 e5 bc e0 ea 7b 3d
       0.13125958 -0.0037671754 -0.02805501 0.06150329
0001e0 50 d7 3c bd 90 da 10 be 8e b8 a3 bd 7c f4 51 bd
       -0.046103776 -0.14145875 -0.079941854 -0.05125855
0001f0 ee 5e 0f 3d a3 cf d1 bc 5a 68 e5 3d 43 84 88 3c
       0.03500264 -0.025611704 0.11201544 0.01666463
000200 b0 72 d7 3d 72 bb 02 bd 95 ae 23 bd ab 71 9d bd
       0.10519922 -0.031917043 -0.039961416 -0.07687696
000210 d7 06 8a 3d fc 85 b9 3b 35 c0 86 3d e5 08 59 bd
       0.06739586 0.005661724 0.06579629 -0.052986998
000220 e6 05 22 3e 0e 6b f5 3b 2b 5d 29 3c 34 3c 01 3d
       0.15822563 0.0074895686 0.010337154 0.031551555
000230 2f e9 87 3d a1 ef 9c 3d f5 96 99 3c 5f 94 0d 3d
       0.06636273 0.07662893 0.01874874 0.034565326
000240 8b 0d 28 3d 62 cd 2c bd 00 86 09 bd e6 63 af 3c
       0.04102854 -0.042188056 -0.033575058 0.02140994
000250 b0 2a 00 3e 4b 29 be bd e0 b0 f7 3d 88 94 bb 3b
       0.12516284 -0.0928522 0.12094283 0.0057244934
000260 c6 59 05 3d 51 7d 7c bd 19 4f 13 3d 16 09 1e be
       0.032556318 -0.06164295 0.035964105 -0.15433154
000270 2e 33 e0 bd e0 96 8d bd 2d 54 be bd 4b 7f f4 3c
       -0.10947262 -0.06913543 -0.09293399 0.029845854
000280 63 f8 05 3d d9 32 bd 3d 26 91 7e bd b8 5c b6 3d
       0.032707583 0.09238214 -0.062150143 0.089044034
000290 82 3f 88 3d 57 63 cf bc 66 93 01 3c 78 79 73 bd
       0.06652738 -0.025315924 0.007908678 -0.059442014
0002a0 bd 11 4f bc ce a2 07 3d b9 56 82 3d 87 17 52 bd
       -0.0126385065 0.033114247 0.06364197 -0.05129197
0002b0 6f 29 b9 3c dd 34 ab 3d 6e a7 e2 3d 02 7a 9c 3d
       0.022602765 0.08359692 0.11067091 0.07640459
0002c0 58 b3 75 bd f4 29 f2 3d de d9 d2 3d 96 e0 62 3b
       -0.05998549 0.11824408 0.10295461 0.0034618727
0002d0 e1 48 09 3c 81 33 3b 3e 82 47 dd 3c f4 0a a6 bd
       0.008379192 0.18281366 0.027011637 -0.08107558
0002e0 6f a5 09 3e 99 b8 d0 3c e0 11 0f 3d 28 0e 9b bd
       0.13442014 0.025478648 0.034929156 -0.075710595
0002f0 78 7c cf bc 83 14 69 3b 92 9d 99 3d 71 28 0f be
       -0.025327906 0.0035565204 0.07500757 -0.13980271
000300 3b 02 bc 3d 8e 5d 09 3d e6 84 f9 bc 8c cf 80 3d
       0.09180113 0.033536486 -0.030458879 0.062895864
000310 f3 f1 ac bd 3e 52 b3 3d b6 67 b5 3d ea 18 ba bd
       -0.08444586 0.08755921 0.08857672 -0.09086783
000320 56 5a 2c 3c 99 7e a4 3c f7 b1 05 be d3 ac a9 3d
       0.010519585 0.020079898 -0.1305617 0.08284917
000330 54 f6 4b bd 0b f4 35 bb 25 4a 32 bd 6d 7a 2d bd
       -0.049795464 -0.002776387 -0.04352774 -0.042353082
000340 a5 7b 14 bd be 23 59 3d c5 03 ce bd 23 47 cd 3d
       -0.03625073 0.053012602 -0.10059313 0.10023334
000350 63 38 6e bd 52 1e 12 bc 09 0c 38 3d 5f 3f e4 bd
       -0.058159243 -0.008918362 0.044933353 -0.111448996
000360 5b 2f bd 3d 7b fd 96 bc 90 a5 8c 3d 3d 7b 5a bd
       0.09237548 -0.018431416 0.06867516 -0.053340185
000370 cd 76 73 3d 85 aa 82 3d 9f eb 27 bb 53 9c b4 3c
       0.05943947 0.0638018 -0.002562262 0.022047197
000380 d4 75 8a bc 04 3b 34 3d 8d 35 00 3d b7 1a a7 bd
       -0.016901888 0.044001594 0.03130107 -0.08159392
000390 94 1a 91 bd e5 02 c1 bd 85 ca 93 3b 31 41 15 3e
       -0.070851475 -0.0942438 0.004510226 0.1457565
0003a0 74 26 04 3e 8b 3a 5b bd 7d d3 66 bc a2 a3 8f bb
       0.12905294 -0.053522628 -0.014088509 -0.00438352
0003b0 5a 90 35 3d be 34 cf 3c 63 b1 ee 3c 41 ee 0a 3e
       0.044327118 0.025293704 0.029137319 0.13567449
0003c0 ba 55 c6 bd 40 33 40 3d b1 7f cb bc fa 5d e8 bb
       -0.0968432 0.046923876 -0.024841161 -0.007091281
0003d0 34 9e 4d 3c 21 ac 96 3c e7 dd e3 3d 67 d7 69 bd
       0.012549926 0.018392624 0.11126309 -0.05709019
0003e0 db e2 e2 bd 8f 3b e6 bd 38 d2 e3 3d b8 ea f9 bc
       -0.110784255 -0.11241829 0.111240804 -0.03050743
0003f0 83 b6 b8 bc e9 c1 8c 3c 34 0e e5 3c 48 d2 4a 3d
       -0.022547966 0.017182307 0.027960874 0.049516946

encoder.bias_ih_l0 f4 [384]
000000 b0 88 39 be 6b 02 9e bd 59 3b b7 3c b9 96 83 bc
       -0.18118548 -0.07715305 0.022367166 -0.016063081
000010 8b b6 95 bd 6f eb 3c bd c5 8e eb bb d2 af 7e bd
       -0.07310208 -0.046122964 -0.0071886503 -0.062179394
000020 ec 7a 0f be 00 7b d2 bd 2f d6 6c bc a0 f0 38 be
       -0.14011735 -0.10277367 -0.014455362 -0.18060541
000030 83 a1 43 be c0 3c fc bd 93 8c eb bd 1b 07 95 bd
       -0.1910458 -0.12316275 -0.11501422 -0.07276746
000040 b5 bd 8f bd 53 01 e9 bd be a9 21 3d 5b c9 f5 bd
       -0.070186056 -0.11377206 0.03946852 -0.12001296
000050 8f 82 de bd c3 24 ac bd ed 22 23 3d 4a 5b 45 bd
       -0.10864746 -0.08405449 0.03982823 -0.048182763
000060 e0 9c 03 be 61 c4 07 be 36 60 30 be 1b 07 d1 bd
       -0.12852812 -0.13258506 -0.17224202 -0.102064334
000070 78 f3 1a be b6 b2 2a 3d 16 81 8a bd 0e 90 72 bc
       -0.15131938 0.04167434 -0.067629024 -0.014804853
000080 b7 18 9e bd fe 85 47 be 1b 08 c2 3c be e8 be bd
       -0.07719558 -0.19484708 0.023685506 -0.09321736
000090 fa a6 8a bc 7f 5b 55 bd 5d 3f 12 be 2e ea 40 bd
       -0.016925324 -0.05208921 -0.14281984 -0.04709833
0000a0 73 30 b2 bd 6a 9a 28 bd f6 9c d6 bd 0a c0 22 be
       -0.08700647 -0.041162886 -0.10479157 -0.1589357
0000b0 c3 44 8c bd 81 48 d4 bd 5c 37 85 bd 10 e5 1e be
       -0.06849053 -0.103653915 -0.065046996 -0.15517068
0000c0 8b f7 7c 3c d0 dd 6d bc eb 50 57 bd 34 7d 1d be
       0.015439878 -0.014518216 -0.052567404 -0.15379792
0000d0 90 32 06 3c 77 19 1b be 4d 9a 24 bc cf b6 f7 bd
       0.008190766 -0.15146433 -0.010046554 -0.12095415
0000e0 e6 e3 9e 3a 14 9f 9b bd d6 17 9d bd b3 86 1d be
       0.0012122362 -0.07598701 -0.07670562 -0.15383415
0000f0 b2 ab 4f 3d 33 a3 8d bd 06 b9 58 bb dc df 9a bb
       0.05070085 -0.069158934 -0.0033069267 -0.004726393
000100 78 0f 94 3d 38 2b a4 bc 55 9d 7c bd 09 e0 bf bd
       0.07229513 -0.02004014 -0.06167348 -0.09368903
000110 5c 27 0e bc cf a5 c2 3b 8f 1c 15 be 50 5b 0d be
       -0.008676376 0.005940176 -0.14561675 -0.13804364
000120 51 74 d2 39 88 db c8 bd 8a e5 56 bd 4a 49 95 bd
       0.00040140984 -0.09807497 -0.052465 -0.072893694
000130 6b 14 3e 3c 87 7d 6c bd 44 5c 82 3d 6a 7b d6 bd
       0.011601548 -0.0577369 0.063652545 -0.10472758
000140 b9 c5 ae 3d 0b 8b b3 3d 26 f8 97 bd eb 5d 9d 3c
       0.08533806 0.08766755 -0.074203774 0.019209823
000150 90 55 b7 bd 94 c7 c7 bd e2 c2 ae bd eb b8 4d bd
       -0.089518666 -0.097548634 -0.08533265 -0.05022518
000160 7f e9 81 bd 95 0f 7f bd 2e 09 01 3d 4a 92 31 bd
       -0.06343364 -0.06227072 0.031502895 -0.043352403
000170 42 e1 d7 bc bb 5b e4 bd a0 df 15 be 44 58 d1 bc
       -0.026352528 -0.11150309 -0.14636087 -0.025554784
000180 d4 58 5d be 68 dc 58 be f9 57 11 be 54 4c 62 bd
       -0.21615916 -0.21177828 -0.14193715 -0.055248573
000190 03 37 55 be 61 d2 18 be 37 08 ac bd e2 eb d7 bb
       -0.20821767 -0.14924003 -0.08400004 -0.0065893987
0001a0 f9 8c 5f bb 9c 2f b8 bd fc 6d b4 bd f8 ae 37 bb
       -0.0034111126 -0.08993456 -0.0881004 -0.0028027873
0001b0 c6 8d e4 bd b6 d8 60 bd db 36 12 be a3 d0 2b be
       -0.11159854 -0.05489417 -0.14278738 -0.16778807
0001c0 1a f8 e7 bd 3f 99 f7 bd 44 10 cd bd 93 92 e8 bc
       -0.113266185 -0.12089776 -0.10012868 -0.028390205
0001d0 08 79 29 be 89 09 d7 bd 76 d5 0a be ba 96 0a be
       -0.16550076 -0.104998656 -0.13557991 -0.1353406
0001e0 c3 44 0d 3d 19 10 b1 bd 46 0c 91 bd ce 18 e1 bd
       0.034489404 -0.086456485 -0.07082419 -0.10991059
0001f0 d8 dc 28 be e9 a8 ae bc 1c 7e 80 bd da 97 ef 3c
       -0.16490495 -0.021320777 -0.062740535 0.029247213
000200 47 96 0a 3c bd 5f 9a bd be b7 c3 bd 6a ea 23 be
       0.0084586805 -0.07537792 -0.095565304 -0.1600739
000210 38 d2 d5 bd 2a f5 d8 bd a9 2d 03 bd b6 88 d6 bd
       -0.10440487 -0.10593636 -0.032025967 -0.10475294
000220 b8 8e a7 bd 5f 7d d5 bd 4b 1c c5 bd 35 da 60 3c
       -0.08181518 -0.10424303 -0.09624537 0.0137239
000230 a9 28 28 be 54 a9 00 bc 48 ff ee bd 24 29 3e be
       -0.1642176 -0.007852871 -0.11669785 -0.18570381
000240 34 1d 07 be 31 78 a1 bc be 36 22 be a5 52 67 be
       -0.13194734 -0.019710632 -0.15841195 -0.2259012
000250 51 47 69 be cf 47 bd b8 7d bd 97 bd fd e4 df bd
       -0.22781111 -9.025598e-05 -0.07409189 -0.10932348
000260 ef 95 03 be 21 50 35 be a5 32 58 bd 06 38 2e be
       -0.12850164 -0.17706348 -0.052782673 -0.17013559
000270 de a2 55 bc db c8 bc bb e0 fd 24 be 35 94 66 3c
       -0.013039319 -0.0057612485 -0.1611247 0.014073421
000280 72 f7 d7 bd 33 da 29 be ac 84 ae bc 47 51 3a be
       -0.10545243 -0.16587143 -0.021303497 -0.18195067
000290 da c2 aa 3b 73 c3 d6 bd 72 70 0a be 75 f6 f8 bc
       0.0052112164 -0.10486498 -0.13519457 -0.030390957
0002a0 56 08 ed bd f7 a0 5c bd f5 1c c9 bd c4 46 35 be
       -0.115738556 -0.053864446 -0.09819976 -0.17702776
0002b0 fd 22 8a bd 5a 00 83 bd 4d ed 04 3b 0a 8f 0e be
       -0.06744955 -0.063965514 0.0020283044 -0.13921753
0002c0 e0 0e 0f bd b1 0a 86 be f6 0e 6e be df 81 38 bd
       -0.034926295 -0.26180032 -0.23247895 -0.04504573
0002d0 8e 8d 18 be 4f f4 16 be ae b5 06 be c0 11 82 bd
       -0.14897749 -0.14741634 -0.13155243 -0.06351042
0002e0 dc 68 a0 bd 32 a1 03 be 1a 4d 82 bd a9 7d d4 bd
       -0.078325 -0.1285446 -0.06362362 -0.1037553
0002f0 06 ef f9 bd 20 6e eb bc 30 77 3f bd f0 16 19 3c
       -0.12203793 -0.028739035 -0.046744525 0.009343848
000300 f0 e6 72 3d dd ab a8 3d 80 4c 69 bd bd a7 23 3d
       0.05930227 0.08235905 -0.05695772 0.03995489
000310 a4 7e 97 3c 74 fa 44 bd 3b f0 a5 bd f8 e4 bc 3c
       0.018493004 -0.048090413 -0.08102461 0.0230584
000320 3b 37 7c 3d c7 ab 88 3d 70 80 13 3d 5d 37 01 3d
       0.06157611 0.06673389 0.03601116 0.03154694
000330 29 c9 a0 3c e4 f9 90 3c f6 4d f3 bc 9c fe ce bd
       0.01962717 0.017697282 -0.02970026 -0.10107157
000340 bb 92 b7 3d 1a 88 a8 3b 32 eb f0 3c dd 08 c4 3c
       0.089635335 0.0051431777 0.029409025 0.023930008
000350 43 2b 07 bd 7e 8d 51 3d 8a b2 75 3d 01 f7 4f bd
       -0.033000242 0.051160328 0.05998472 -0.05077267
000360 4d b5 e5 bb 1b bd 45 3d ed 1d f3 bd 9f ef c4 3d
       -0.007010138 0.04827605 -0.11870942 0.096160166
000370 94 f5 4e 3c a8 e7 81 bd dd d9 af bd 3c 68 e7 3c
       0.012631793 -0.06343013 -0.08586476 0.028247945
000380 a6 96 d4 3c bf 97 43 bb b5 1e d5 3c 1e 6a 15 bd
       0.025950741 -0.0029845086 0.026015619 -0.036478154
000390 f1 0d fb 3c 3b 68 6d 3d 71 49 e8 bd c1 08 1c bd
       0.030646296 0.05796073 -0.11342133 -0.038094286
0003a0 d2 0a 20 bd ed e4 db 3d fc ba 7e 3c 26 9d 95 bd
       -0.03907282 0.107370235 0.01554751 -0.07305364
0003b0 c2 ea 2a 3c d3 64 5a bd cb 8c b3 3c e4 cc 72 3c
       0.010431947 -0.05331881 0.021917721 0.014819358
0003c0 22 7d 58 bd d5 31 bd bb 5b 39 9b 3c ac 79 fa 3d
       -0.05285371 -0.0057737627 0.018948248 0.12230238
0003d0 1e 15 9b bc ed 7a 07 3c 48 d1 cd bd 3c 5d 9d bd
       -0.018930968 0.008269054 -0.10049683 -0.07683799
0003e0 2c 0d 01 3c 38 35 87 3b 04 cb 40 bd 03 24 4a 3c
       0.007876676 0.004126217 -0.04706861 0.012337687
0003f0 57 d4 4c bd 7b bb 5d 3d a6 82 3b bd 9a 87 7c 3d
       -0.05000719 0.054133873 -0.045778893 0.061652757

encoder.bias_hh_l0 f4 [384]
000000 de b2 91 bd 02 41 8d bd ee 3c a4 bd 32 f0 49 bc
       -0.07114194 -0.06897165 -0.08019434 -0.012325333
000010 77 ef 37 bc 7a 7e bb bd 42 60 20 be 61 bd 6f ba
       -0.011226526 -0.09154983 -0.1566172 -0.0009145346
000020 f7 4d 10 be 9b 94 78 be ab 50 bb bd 27 98 8d bd
       -0.14092241 -0.24275438 -0.091462456 -0.069137864
000030 99 de 57 be 8f 73 aa bd f1 fc ce bd 9b 42 8e bd
       -0.21081008 -0.08322822 -0.101068385 -0.06946298
000040 b9 dc 23 be 41 3b ac 3c de 85 8a 3b 6a 13 be bc
       -0.16002168 0.021024348 0.004227384 -0.023202617
000050 cd 7d 0d be 76 a1 34 3c c0 a4 99 3c 2e c1 35 be
       -0.1381752 0.011024823 0.018755317 -0.17749473
000060 05 4e 17 bc d8 33 05 bd 87 2b 40 bd f7 a7 dd bd
       -0.00923491 -0.032520145 -0.04691651 -0.108230524
000070 59 a4 1d be f5 df 97 bd 08 32 15 bc 12 20 bf ba
       -0.15394725 -0.07415763 -0.009106167 -0.0014581701
000080 5f 6d 22 be 03 e6 0e bd af 04 0f be ec 0b e5 bd
       -0.15862034 -0.034887325 -0.1396663 -0.111839145
000090 b7 28 c4 bd 84 3e a9 bd 4f eb 35 bd 87 1c fa bd
       -0.09578078 -0.08263877 -0.04441386 -0.122124724
0000a0 16 b6 96 bd 6c fb f8 bd 90 a2 c0 bd ea f8 1a be
       -0.07358949 -0.1215733 -0.09406006 -0.15134016
0000b0 73 82 c1 bd e0 0d f9 bd 86 1c ad bc 92 ef c8 bd
       -0.09448709 -0.121608496 -0.021131765 -0.098113194
0000c0 7b 1e 32 bd 11 0a 06 be 92 6d d7 bd 54 e3 69 bd
       -0.0434861 -0.13089778 -0.10518946 -0.057101563
0000d0 33 af 1b be 36 64 99 3c a2 03 5f 3c 13 24 be 3b
       -0.15203552 0.018724542 0.013611706 0.00580264
0000e0 a8 6c 4a be 09 99 d3 bd 84 4f de bd f8 8e 03 bd
       -0.19768012 -0.103319235 -0.1085501 -0.032118767
0000f0 2c 4a 83 bd 65 6c a6 bd fe 89 0a be 7e d4 26 3c
       -0.064106315 -0.08126143 -0.13529202 0.010182498
000100 9d 45 be 3b ad 22 c9 bd bf 07 e9 3c 8e f1 27 bc
       0.0058066384 -0.09821067 0.028446076 -0.010250462
000110 4c a3 2a bd 56 df 98 bd cd 93 12 be 33 cf f7 bc
       -0.04165964 -0.07464473 -0.14314194 -0.030250167
000120 e8 3b 1c be 1e d4 01 3d cf 8c b1 bc 1f 79 10 be
       -0.15257227 0.03169643 -0.021673588 -0.14108704
000130 13 df 8a bd 4c 9d 29 be f6 a6 33 bd 43 50 43 bd
       -0.06780829 -0.1656391 -0.0438604 -0.047683965
000140 0d 25 58 bc a5 b8 27 bc 61 e4 c4 bd d8 ff 90 3c
       -0.013192427 -0.010236894 -0.09613872 0.01770012
000150 88 7c 32 be 4d 0a 0b bd 80 eb c3 bd 63 85 03 3d
       -0.17430317 -0.03394537 -0.095664024 0.03210963
000160 64 de 0e be 95 5a 0e be 41 20 e3 bd eb 2c fd b9
       -0.13952023 -0.13901742 -0.11090136 -0.00048289387
000170 f6 c5 37 be a3 dd c5 bd a1 45 62 be 12 7e db bd
       -0.1794661 -0.096614145 -0.22096874 -0.107174054
000180 4d fc c7 bd 12 78 57 be bc 9d 2e be b8 23 bc bd
       -0.097649194 -0.21041897 -0.17052358 -0.091865
000190 84 8d 43 be 99 ba cf bd 71 5d e0 bd 98 1c ae bd
       -0.19096953 -0.101430126 -0.109553225 -0.085015476
0001a0 0a 87 1a bd 26 bc 3a bd fa a9 18 be 2a 82 26 be
       -0.03772644 -0.04558959 -0.14908591 -0.16260591
0001b0 fd aa 2c be 25 df 1f be 9d e4 73 be 16 7e a6 bc
       -0.16862102 -0.15612467 -0.23817678 -0.020323794
0001c0 19 c9 af bd 28 a2 bf bd 4f 09 dd bd 75 de 27 be
       -0.08583278 -0.09357101 -0.10792791 -0.16393454
0001d0 0b 0a b0 be 25 b5 3f be eb 44 e6 bc 10 b4 46 be
       -0.34382662 -0.18721445 -0.028109035 -0.19404626
0001e0 3a 67 a3 bc f9 57 38 be 83 77 32 be 90 60 46 3d
       -0.019946683 -0.18002309 -0.17428403 0.048431933
0001f0 72 ba c2 bd 7d 9a 1a be 1a 2b c8 bd bd 37 a1 bd
       -0.09508218 -0.15097995 -0.09773846 -0.07871959
000200 63 47 00 bd f2 bd 01 be 02 a9 ba bc b7 f2 14 be
       -0.03131808 -0.12670115 -0.022785667 -0.14545713
000210 2b dc 91 bd 14 fb 15 be 73 2a b7 bd 9f d9 f9 bd
       -0.07122072 -0.1464656 -0.089436434 -0.12199711
000220 9e 99 3f bc 0f e8 22 be da c0 76 bd 35 73 80 ba
       -0.01169434 -0.15908836 -0.06024251 -0.0009799959
000230 57 49 40 be 24 c7 d8 bd f5 13 0f be bf c1 58 bd
       -0.18777977 -0.10584858 -0.13972457 -0.052919146
000240 dd a2 ef bb 37 88 58 bd c7 b4 00 be ee e5 43 be
       -0.007313116 -0.05286428 -0.12568961 -0.1913068
000250 54 7b c7 bd 68 9f 77 3d dd ce 20 be 94 b6 55 bd
       -0.0974032 0.060454756 -0.15703912 -0.052176073
000260 28 bf 84 be 0b c0 0b bd 1c e9 55 be ed 30 ec bd
       -0.2592709 -0.034118693 -0.20889705 -0.11532769
000270 a1 64 d9 3c 1f a1 e3 bd 86 21 0f be 21 52 99 bd
       0.026537241 -0.11114716 -0.13977632 -0.07486368
000280 49 65 ae bd 80 20 14 be 9a 4c 77 bb c1 16 10 be
       -0.08515412 -0.14465523 -0.0037734867 -0.1407118
000290 31 73 ef bc f3 f3 9a bd 16 3c 07 bd 3c 94 e7 bd
       -0.029229732 -0.07566061 -0.033016287 -0.1130757
0002a0 2b 36 61 bd 27 c0 5f 3c 8c 73 88 bd 48 93 80 bd
       -0.0549833 0.0136566525 -0.06662664 -0.06278092
0002b0 b4 2c 89 bd 08 ed cc bd f3 b7 74 bd 11 5f ce bd
       -0.066979796 -0.100061476 -0.05974574 -0.10076726
0002c0 81 c1 32 bd 7f ac 48 be 36 4b fd bd 8c 41 19 be
       -0.04364157 -0.19597052 -0.12367861 -0.1496641
0002d0 52 67 a3 bd 10 b6 ab bd 6f 84 80 bd 6d 34 f6 bd
       -0.07978691 -0.08384335 -0.0627526 -0.12021718
0002e0 c9 38 af bd c7 63 a2 bd 63 f0 1b bc a5 04 49 be
       -0.08555753 -0.07929187 -0.009517762 -0.19630678
0002f0 57 a5 89 bd 03 ed b8 bb 9d da bb bd 5c a1 71 bd
       -0.06720989 -0.0056434884 -0.091725565 -0.058991775
000300 de 26 0c 3d fc df c6 bc 37 b9 ef 3d 14 6c 06 3b
       0.034216754 -0.024276726 0.11705249 0.0020511197
000310 ca 4c 89 bc 72 c4 b0 bb 33 df ff 3b 3a 3a ef 3d
       -0.016760249 -0.005394512 0.00780859 0.11681028
000320 9a 00 a0 bd ef 4b 81 3d fe c9 e6 3c 46 d3 30 bc
       -0.07812615 0.06313311 0.02817249 -0.010792559
000330 0c f8 36 3d 5d 40 03 bd 2a a8 96 3d 7b d9 22 3c
       0.04467015 -0.032043803 0.073562935 0.009939547
000340 2f 9e c1 bc 40 41 66 bd 08 e1 8f bd 0e 95 3a 3d
       -0.023634998 -0.05621457 -0.07025343 0.045552306
000350 d1 ad b4 3a 43 30 22 3c c8 80 8d 3d 3c e6 6c 3d
       0.0013784711 0.009899202 0.06909329 0.057836756
000360 7e bc c7 bd ec 15 b9 3c 28 33 4f bb ff cb 72 bd
       -0.09752749 0.022593461 -0.0031616185 -0.059276577
000370 b7 78 6d bd f9 48 0f 3d 8c a3 98 bc 9f 2b ab 3d
       -0.05797645 0.0349817 -0.018632673 0.083579294
000380 34 e3 05 bd 98 37 dd 3d 54 ec 2d 3d 12 a5 e0 3d
       -0.03268738 0.10801619 0.04246171 0.10968985
000390 e5 67 e9 bb 9e aa cf 3d fb a8 89 bd 09 ad 26 3d
       -0.007122981 0.101399645 -0.067216836 0.040692363
0003a0 1b d8 5b bd f1 71 d9 bc 9e e7 a3 bd b2 22 8a bd
       -0.05367289 -0.02654359 -0.08003162 -0.06744899
0003b0 72 2f 5a 3d f6 1f 5f bd 84 7d 18 3d f2 35 8a bc
       0.053267904 -0.05447384 0.037229076 -0.016871426
0003c0 5e 00 45 3c ea 43 eb bd bc c6 55 3d 63 67 8f bd
       0.012024013 -0.11487563 0.05219148 -0.07002141
0003d0 56 65 bc bc 7b 9b e8 bd 65 f5 9a 3b 61 48 4a 3d
       -0.02299754 -0.113577805 0.0047289603 0.049385432
0003e0 d1 56 c7 bd b1 d8 86 3d ab 1f 7e bd a1 7a 9b bd
       -0.09733356 0.06584299 -0.06204192 -0.07591749
0003f0 60 13 5a 3d 2f c3 7c 3d ed ab 17 3d 09 e5 e2 bd
       0.053241134 0.06170958 0.037029196 -0.11078841

encoder.weight_ih_l1 f4 [384, 96]
000000 96 94 96 bd fc e4 17 3e 50 dd 3f bd aa 1c 39 be
       -0.07352559 0.14833444 -0.04684192 -0.1807734
000010 19 32 91 bd 43 ef 0a be aa c4 2d 3d d4 b1 16 3d
       -0.070896335 -0.13567834 0.04242388 0.036790684
000020 c9 29 5e bd b0 25 77 bd 70 4f 7a bd d5 19 a9 3d
       -0.05423907 -0.060338676 -0.061110914 0.0825688
000030 78 0f af bd 17 b8 b6 3d 28 fb bd 3d a3 d8 e0 3d
       -0.08547872 0.08921831 0.0927642 0.1097882
000040 05 0a 59 bc 43 c8 fa bd 91 56 02 3e b9 84 fa bd
       -0.013247018 -0.12245228 0.12728335 -0.12232346
000050 09 12 34 bd eb 7f d8 bd f1 50 a5 3d 99 af ad 3d
       -0.043962512 -0.105712734 0.08072079 0.08480758
000060 12 88 21 bd aa 6d 04 3e d2 52 fb 3d eb da d7 bc
       -0.039436407 0.12932459 0.12271656 -0.026349505
000070 40 37 22 3e 93 d1 03 3d d3 19 85 bd f9 b6 97 bd
       0.15841389 0.032182287 -0.06499066 -0.07407946
000080 cd db 04 3c e8 5d 2a be c7 79 b7 bd b8 56 64 bc
       0.008109045 -0.16637385 -0.08958774 -0.013936691
000090 fe 83 b1 bb 5a 13 c3 bb 87 52 e9 3c a3 46 ce bd
       -0.005417346 -0.0059532346 0.028481735 -0.10072067
0000a0 c5 91 89 3a ae e4 01 3e 2c 14 a9 bc 37 4c 1e 3e
       0.0010495713 0.1268489 -0.020639502 0.15458761
0000b0 a4 54 cf 3c 21 c9 42 bd 83 d1 9c bd 3d a1 b0 3c
       0.025308914 -0.047555093 -0.07657149 0.02156126
0000c0 a6 38 b9 3c 31 ae b6 3d c9 af 4f bd 58 19 c3 bb
       0.02261002 0.08919943 -0.05070475 -0.005953949
0000d0 62 44 bc 3d 5b ce c8 3d a0 61 b1 3d 66 ac 9c bd
       0.091927305 0.09804984 0.086611986 -0.0765007
0000e0 73 65 20 bd 9d e9 c4 3d 38 d1 c2 3d 6e 7a 84 3d
       -0.03915925 0.09614871 0.095125616 0.06468664
0000f0 c9 3a 93 3c 35 17 06 be 0c 01 23 3d f6 ad de 3d
       0.017972367 -0.1309479 0.03979592 0.10873024
000100 97 4b ac 3c 67 f6 2a 3d 2e 2c c6 3d 1f 05 9c 3d
       0.021032138 0.041738894 0.09676395 0.07618164
000110 93 8d 9f bc 4f 48 11 3d 4e 15 0f 3d fd 93 a6 bd
       -0.019476688 0.03546935 0.034932427 -0.08133695
000120 b1 3c ba bc f6 d9 d8 3c 8c 8e 25 3d 93 67 83 3d
       -0.022734018 0.02647112 0.040419146 0.064162396
000130 d1 10 9f 3c 8a eb 82 3d 29 66 32 bd c7 11 64 bd
       0.019417198 0.06392582 -0.04355446 -0.055681016
000140 e4 26 84 3d db 00 29 3e 9a f3 d4 bd fc 88 b8 bd
       0.0645273 0.16504233 -0.10398026 -0.09010503
000150 19 d1 50 3d 14 5c f3 3c 11 c9 de 3d 6c 93 16 3c
       0.05098066 0.029706992 0.10878194 0.009190422
000160 62 70 47 3d 4c f2 59 be 21 43 a1 3d 35 a7 2f bc
       0.04869116 -0.21283835 0.07874132 -0.010721018
000170 d0 e5 dd bc c1 b0 65 bd b5 98 f7 3d 4f 1a 4c be
       -0.027087122 -0.05607677 0.120896734 -0.19931911
000180 48 51 bd 3d 74 da c1 3d 6f 51 28 bd 32 8b 67 3d
       0.09244019 0.09465495 -0.041093286 0.05652923
000190 9d ee bc bc f6 4b ce 3c 77 4e f9 3c af c4 e0 bd
       -0.023062998 0.025182705 0.030432923 -0.109750144
0001a0 81 8d 17 bc 2c 86 df 3b d8 0f 0e be f2 e7 6d 3d
       -0.009250046 0.0068214145 -0.13873231 0.05808253
0001b0 1a 6e 38 3d c1 62 41 bd 88 76 c7 3d d1 f9 05 3e
       0.045026876 -0.04721332 0.09739405 0.13083579
0001c0 21 24 d7 bc d7 02 01 be 66 05 70 3d ff 2e a0 3d
       -0.026262345 -0.1259874 0.0585989 0.07821464
0001d0 da f6 fd 3c a7 cc 00 3c 82 b3 e9 bd 59 04 0c 3c
       0.031001497 0.007861293 -0.114111915 0.008545958
0001e0 5a 78 81 3d 2d 90 4d bd 40 59 b6 3d f4 c7 75 3d
       0.06321783 -0.050186325 0.08903742 0.060005143
0001f0 bb df 96 bd 2f 81 17 bc 97 2e 06 3e 42 76 e1 bd
       -0.07366892 -0.009247108 0.1310371 -0.11008884
000200 8d c7 fc 3c 8e f8 fe bc 79 f6 95 bd 3f 20 f1 bd
       0.030856872 -0.03112438 -0.073224016 -0.117737286
000210 01 ff 28 bd cc a8 dd 3c f9 b9 8a bd a1 3e 26 bd
       -0.041258816 0.027058028 -0.06773753 -0.04058707
000220 8b 48 70 bc 16 70 8f 3d 3a 08 4c 3d c0 46 bb bd
       -0.014665733 0.070038006 0.049812533 -0.09144354
000230 f0 96 a0 3d b5 f1 d6 3d 71 d7 4e 3d 5b d7 f5 bb
       0.07841289 0.10495321 0.05049843 -0.007502479
000240 59 bc fb 3d 40 65 6f 3d 49 82 d5 3d 8c 78 10 3e
       0.12291784 0.05844617 0.104252405 0.14108485
000250 e0 e7 d4 bc db 0e c2 3c 7b 4b 29 3e 5f aa 8b bc
       -0.025989473 0.023688724 0.165327 -0.017049013
000260 1a ca 03 3e ea d0 3c 3d a0 71 06 3e 7a 21 21 3d
       0.12870064 0.046097673 0.13129282 0.039338566
000270 54 5f 04 3e 99 7f ea bd 8b 9e cb 3c d4 e5 d9 3d
       0.1292699 -0.114501186 0.024855873 0.10639539
000280 cf 55 a8 3d cb ae 13 3d e4 6b f0 3b 91 74 6c bc
       0.08219492 0.036055367 0.0073370803 -0.0144320885
000290 23 51 e8 3d 77 69 3d 3d a5 6a 4f 3d 90 1a f5 3c
       0.113436006 0.046243157 0.050638814 0.029919893
0002a0 5a 76 b6 3b c6 cb 00 3e db 9c 5f bd a3 2f 27 bd
       0.005568308 0.12577733 -0.05459295 -0.040816914
0002b0 49 11 19 3e 82 e8 d9 3d c0 17 cd 3c af 5c 99 3c
       0.14948 0.106400505 0.025035739 0.018720953
0002c0 22 8a 9b 3c 9b 96 13 3e 6d 0a a9 bd 1b af 92 3d
       0.018986765 0.1441292 -0.08253942 0.07162305
0002d0 60 ba 94 3d 19 26 7f ba fe f6 dc bc fa 2d e5 3d
       0.07262111 -0.0009733155 -0.026973244 0.1119041
0002e0 27 aa 60 bd be 40 bc bd 50 38 a2 bd 8c f6 f4 3c
       -0.05484977 -0.09192036 -0.07920897 0.029902719
0002f0 9c ef a9 3b 30 41 e5 bb e3 f2 73 3b b2 c4 a2 bd
       0.0051860344 -0.0069962963 0.003722363 -0.07947673
000300 e2 d6 75 bd 0b 38 03 3e 14 76 74 3d 71 2a c7 bd
       -0.06001938 0.12814347 0.05968292 -0.09724892
000310 59 c9 99 3d 74 b4 54 bd 86 5c ec 38 56 45 07 be
       0.07509107 -0.051929906 0.00011270591 -0.13210043
000320 78 d6 1d bd 74 60 86 bd 5b 62 f5 bb 65 9b 84 bd
       -0.03853461 -0.06561366 -0.0074885315 -0.06474952
000330 2e d8 b9 3c 23 81 28 bd 6e f2 5f 3c 53 90 5b 3d
       0.02268609 -0.04113878 0.01366864 0.053604435
000340 6a d1 54 bc 87 ac 30 bd 3c fe 4e bd a6 98 11 be
       -0.012989381 -0.043133285 -0.050535426 -0.14218387
000350 a7 e2 9e bd c2 e1 97 bd f8 7e 73 3d 24 7e 80 bb
       -0.07758074 -0.07416107 0.05944726 -0.003921287
000360 9e e6 90 3d 23 a7 b1 bd 9f 12 81 3b 9f c9 a8 3b
       0.07075237 -0.08674457 0.0039389874 0.005150988
000370 35 d1 87 bc e6 c7 c6 3d 1e 56 05 3e a4 60 88 3d
       -0.01657925 0.09706096 0.13021132 0.06659058
000380 90 05 85 3d bb bc 00 be ba d0 b2 3d da 98 29 be
       0.064952016 -0.12571995 0.08731218 -0.16562214
000390 52 ca ae bc 3e e6 bc 3c 39 f5 8f 3d ff 4f 97 bd
       -0.021336708 0.023059007 0.070291944 -0.07388305
0003a0 bc 9d bb bc 15 bf 18 3d e2 73 db bd ba e7 12 3d
       -0.022902362 0.037291605 -0.10715462 0.035865523
0003b0 e6 4b 49 3d 41 b4 5b 3d 73 a4 1a bd 19 9c 48 3e
       0.049144648 0.0536387 -0.037754487 0.19590797
0003c0 38 40 dc bd 8e 97 6a 3d ca 05 93 3d 85 7e 0a 3e
       -0.10754436 0.05727344 0.071788386 0.13524826
0003d0 28 62 d2 bd 09 de 16 be 71 b0 94 bd f3 b2 83 3d
       -0.10272628 -0.14733137 -0.07260216 0.06430616
0003e0 ee 06 4d 3d 8f 72 fb 3c b2 ee e6 bd 97 d9 91 3d
       0.050055437 0.030694274 -0.11275996 0.0712158
0003f0 cd ad 95 3d 2f 6a bd 3d 83 f6 8e 3c a7 53 bf 3d
       0.073085405 0.092487685 0.01745153 0.09342127

encoder.weight_hh_l1 f4 [384, 96]
000000 42 f0 73 3d b6 d2 be 3d 6a b8 28 3e 28 f7 97 3d
       0.0595553 0.09317534 0.16476598 0.07420188
000010 36 35 6d 3c c0 55 f9 bc 16 74 0f 3d bc 7b 4f bd
       0.0144780185 -0.030436397 0.035022818 -0.05065511
000020 a9 13 2f 3d 6c 82 4c be f3 53 aa bd f3 4c 9c bd
       0.04274336 -0.19971627 -0.08316793 -0.076318644
000030 1e 67 60 bd cf c2 09 be 67 0d fd bc 3c 3b 30 3e
       -0.05478584 -0.1345322 -0.03089018 0.17210096
000040 84 47 98 bd 00 03 22 3d 0f b3 08 3e c7 d4 ab 3d
       -0.074355155 0.039553642 0.13349555 0.083901934
000050 81 cf 40 3d 1c e9 bc 3d 4b 16 cf 3c b8 e9 8c bd
       0.04707289 0.092241496 0.025279185 -0.06880516
000060 6e d1 5d 3c 26 11 c7 bd 52 09 5f 3c 46 71 89 bd
       0.013538701 -0.09720068 0.013613062 -0.06711058
000070 8a 3c fb bc cd 11 8a 3c 61 e2 cc 3d 5a 81 d6 bc
       -0.030668516 0.016854191 0.10004116 -0.026184727
000080 21 b7 47 be 28 b7 b8 3b f2 af f6 3d 63 ca 7a bd
       -0.19503452 0.0056370683 0.12045278 -0.061228167
000090 79 12 24 3d 8e 1c ae 3d 19 13 37 bd 3f 88 ff 3d
       0.04005668 0.0850154 -0.044695947 0.12477159
0000a0 0d 8a db 3d 38 19 da 3d 34 a9 1c 3d fb 22 1d 3e
       0.107196905 0.10649341 0.038247302 0.15345375
0000b0 7b 61 09 be ba 8a 14 bd 46 7f 3b 3d ef 75 e2 3d
       -0.13416092 -0.036265112 0.045775674 0.1105765
0000c0 d5 dc 29 3d ff 8c 67 bc ac d6 87 3c 4c fd 10 3c
       0.041470367 -0.014132737 0.016581856 0.008849453
0000d0 25 36 26 bc c9 6f 23 3e ec fb 2e 3c 82 0b 48 3e
       -0.010144745 0.15960611 0.01068018 0.1953564
0000e0 ef c5 7f bd d1 6d 0c be 07 a3 1b bd 62 e5 0f 3d
       -0.062444624 -0.13713767 -0.037997272 0.035130866
0000f0 2a 49 15 be 99 87 1d 3e fd 41 0b be e4 35 5f 3c
       -0.14578691 0.15383758 -0.13599391 0.013623688
000100 ab 57 d8 bd 1d cd 05 3e aa 19 38 3e 38 7a be 3d
       -0.10563596 0.13066526 0.1797854 0.09300655
000110 08 1a cb 3c 39 04 a2 bc cf d2 9a 3c 00 f5 24 bd
       0.024792686 -0.019777404 0.01889935 -0.040272713
000120 3c 85 d2 3b 2b 9d 1f bc 89 3f ae bd c7 3a 05 3d
       0.006424574 -0.009742062 -0.08508212 0.032526758
000130 8c a4 2a 3d ac 0d 49 bd bd f7 b6 bd 32 90 1b 3e
       0.04166083 -0.049085304 -0.08933971 0.15191725
000140 cd 0c 3d 3e 3e b0 44 be 35 55 36 3e dc ee cd bc
       0.18461914 -0.19207856 0.17805941 -0.025138311
000150 1d 72 54 3c d3 54 89 bd a6 e9 c5 3d e2 9a ec 3d
       0.01296666 -0.06705632 0.096637055 0.11552979
000160 ad 8d 54 3b 5a df 4d bd e7 c5 2b 3d 33 26 f1 bd
       0.0032433078 -0.050261833 0.04193678 -0.11774864
000170 56 28 c9 3d 3e 28 34 3d 0c 2b f8 3c 35 14 b2 3d
       0.098221466 0.04398369 0.030293964 0.086952604
000180 f4 f6 b2 3d 11 b1 fe bc 76 a2 98 3d 8f cc a6 3d
       0.08738509 -0.031090291 0.07452862 0.08144485
000190 e5 c6 cd bc bc 1f 1f bd 05 f9 14 bd 1a ca 70 3d
       -0.025119254 -0.038848624 -0.036370296 0.05878649
0001a0 06 03 8d 3d 32 e5 28 bc 55 4d b7 3c 75 db 78 bc
       0.06885342 -0.010308551 0.022375742 -0.015189041
0001b0 2b ac 67 3d 9f bf 03 bd 10 b6 81 3d 2c b5 68 3b
       0.056560677 -0.032165166 0.06333554 0.0035508377
0001c0 b2 13 84 bd 2b 25 36 3d 90 ef 7c 3d cd 66 2d 3c
       -0.06449069 0.04446904 0.061751902 0.010583592
0001d0 4b 2c 38 bd 98 18 65 3d 73 26 2b 3d 0d e1 9d bd
       -0.044964116 0.055931658 0.041784715 -0.07708941
0001e0 0f 5d 6d 3d 79 1d 2d bd 14 8b 84 bd 62 d4 0a bd
       0.057950076 -0.042264435 -0.064718395 -0.03389395
0001f0 55 90 4c be 72 f2 9e bd 8f 25 8d 3d 37 d9 69 bd
       -0.19976933 -0.077610865 0.06891929 -0.057091918
000200 f1 47 a3 bd e9 3d db bc cb e5 89 3d 93 78 6e bd
       -0.07972706 -0.02676292 0.06733283 -0.058220457
000210 16 25 64 3d d0 26 68 3c 76 8a 3d bc a5 b8 7d 3d
       0.05569943 0.01416941 -0.011568656 0.06194367
000220 5c 63 7c bc fd f2 37 3c ee 93 48 3d 22 57 c9 3d
       -0.0154045485 0.0112273665 0.0489692 0.098310724
000230 e9 2a 03 be b0 3f 95 bd 3e 8a 80 3b d4 8e 00 3e
       -0.12809338 -0.07287538 0.0039227298 0.12554485
000240 9b b7 05 3e cb 28 88 bc 4c 35 24 3d c6 31 a6 bd
       0.13058321 -0.016621014 0.04008989 -0.08114962
000250 c5 2e b6 bd 19 50 2d bd 4f 5f ad bd eb 64 9e 3c
       -0.08895639 -0.042312715 -0.08465444 0.01933523
000260 77 03 20 bc 96 d6 98 bb 35 f5 1e be 2a 9c 36 3e
       -0.009766451 -0.0046642525 -0.15523227 0.1783301
000270 8a 5c ce bd 70 71 e9 3d 9b 54 11 3c 3d a8 61 3d
       -0.10076244 0.113985896 0.008870269 0.055092085
000280 97 bb 5b bd e9 d5 52 3e fc 05 ee 3c 71 05 5c bd
       -0.053645696 0.20589413 0.029055588 -0.053716127
000290 fe 5c 2c bc e1 55 6d 3d e9 03 03 3d fa 65 51 3d
       -0.010520218 0.05794323 0.03198615 0.051122643
0002a0 6b 5a 54 3d 4f 2f 89 bc 8b df 25 bd 44 dd d6 bc
       0.05184404 -0.016746191 -0.04049639 -0.026228555
0002b0 62 0f dc 3d 74 0c 97 bc f1 6a dc bd df 0e 70 3c
       0.107451215 -0.018438555 -0.10762585 0.014651983
0002c0 e0 a9 a1 3d fd a1 54 bd 30 1d 37 3d 68 58 f4 bd
       0.07893729 -0.051912297 0.04470557 -0.11930925
0002d0 1a b8 87 3d 40 24 ae bd 0e 48 52 38 3a 87 2a 3d
       0.066269115 -0.08503008 5.0135008e-05 0.04163287
0002e0 7f 10 b8 3c 26 a0 85 3d 51 cf 11 3d 73 7b 56 bd
       0.022468803 0.065246865 0.035598103 -0.052363824
0002f0 a4 c2 f9 3c 01 64 c4 3c 20 09 ee bd e8 8c 9b 3d
       0.03048832 0.023973467 -0.11622834 0.07595235
000300 3d 1e 8d bd 86 01 58 bd 07 8f 80 3d 80 cf 65 3b
       -0.06890533 -0.052735828 0.0627728 0.0035066307
000310 ab 48 5a bd 39 08 9d bc 4c 31 27 bd da 91 b9 3d
       -0.053291958 -0.01916896 -0.040818498 0.09061022
000320 47 49 64 bd db 33 d6 bd fe 57 42 bd 6b 04 4e bd
       -0.055733945 -0.104591094 -0.047447197 -0.050297182
000330 35 c7 a9 ba 59 30 3d be 1c 68 f8 3c aa e9 a8 3d
       -0.0012953045 -0.18475474 0.03032308 0.08247693
000340 d0 9e 04 bd 6c b9 9b bd a5 e8 4f bd 1b f0 0d bd
       -0.032378018 -0.07603726 -0.050758976 -0.03465281
000350 71 98 08 3e ea 73 e1 bc 65 2b de bd a6 d5 1d bd
       0.13339402 -0.027521092 -0.108481206 -0.03853383
000360 a4 8a 34 3c 45 ed 9d 3d 01 3b 25 3e a8 89 76 3c
       0.011019383 0.07711271 0.1613579 0.015047468
000370 60 44 3a 3d f6 de df bd 26 1f 9b bd dc d7 2f bd
       0.045475364 -0.10931198 -0.075743005 -0.04293047
000380 45 3a 03 be a9 78 01 3e 03 a4 80 3d 98 53 17 bd
       -0.12815197 0.12643684 0.06281283 -0.036944956
000390 7f 29 0f 3d ae a0 07 3e 9e 36 5b bd 1c b6 ea bd
       0.034951683 0.13244888 -0.053518884 -0.11460516
0003a0 e1 fa 48 bd 8a 97 fc 3a 9b 88 cf 3c cc 33 02 bd
       -0.04906738 0.0019271236 0.025333693 -0.03178768
0003b0 e6 62 63 bc 71 08 ed bd 23 1f 09 bb c3 b9 af 3c
       -0.01387856 -0.11573876 -0.00209231 0.021450883
0003c0 88 9a 93 3c 25 28 09 bd b7 2a 94 3d 07 c6 cc bd
       0.018018022 -0.03348555 0.0723471 -0.09998708
0003d0 27 90 86 3d 4e 7b 90 3d af ac f6 3d 2b 48 a2 3d
       0.06570464 0.070547685 0.120446555 0.07923921
0003e0 aa fd 3a bd ab 93 30 3c 15 b0 fe 3b f6 c3 d6 3d
       -0.04565207 0.010777394 0.0077724555 0.10486595
0003f0 10 90 d4 bc 70 c4 47 3e 10 16 c3 bd e1 41 68 3a
       -0.0259476 0.19508529 -0.095256925 0.00088599144

encoder.bias_ih_l1 f4 [384]
000000 2e 84 26 be 95 25 0c bc 89 bb 9e bd c6 1f dc bd
       -0.1626136 -0.008553882 -0.07750613 -0.10748248
000010 cb 89 52 bd 10 39 07 be 55 91 4c bd 0b 62 00 bd
       -0.05140094 -0.13205361 -0.049943287 -0.0313435
000020 54 a2 de bd ad a8 ea bc 86 06 2a 3b 5b 58 78 bd
       -0.108708054 -0.028644884 0.002594383 -0.060631137
000030 db 4a e9 bd b1 85 9a bc 07 ee 08 be 80 08 7a bd
       -0.11391231 -0.018862577 -0.1337205 -0.061043262
000040 5b 9a d7 bd ed f6 3c be d4 2a e6 bc 67 35 27 be
       -0.10527488 -0.1845357 -0.028096594 -0.16328965
000050 49 e3 21 be 87 4d 5b bd ce d6 36 bd 82 ee 00 bd
       -0.15809359 -0.053540733 -0.044638447 -0.03147746
000060 3b 6c 24 be e2 b3 2b bd 70 63 c5 bd 92 63 96 3b
       -0.16056912 -0.041919596 -0.09638107 0.0045895064
000070 63 9a fd bd f7 e5 fd bb 24 f0 55 be 54 36 34 be
       -0.123829626 -0.007748361 -0.20892388 -0.1759885
000080 a3 28 96 bd 26 aa e9 3b 60 80 f0 bd 68 69 81 bd
       -0.073319696 0.007130879 -0.117432356 -0.06318933
000090 33 12 ce 3c 2c 8e 0e be 16 26 ce bd 92 2d b4 bc
       0.025155162 -0.13921422 -0.10065858 -0.021994386
0000a0 30 a6 58 be e5 2d 53 bd a2 9d 0d be 21 9a 27 bd
       -0.21157146 -0.05155744 -0.13829663 -0.040918473
0000b0 0e 96 b7 bd 71 73 fb bd 0f 89 9e 3b ae d6 b4 bd
       -0.089641675 -0.12277878 0.004838116 -0.088300094
0000c0 cf 07 cd bd cf c9 5e be ba 5b 23 bd 57 5c b3 bd
       -0.10011255 -0.21756671 -0.0398824 -0.08757847
0000d0 8b 85 ab bd e6 42 86 bd 4c 55 5c bb b4 28 cf bd
       -0.08375081 -0.065557286 -0.0033620177 -0.101151854
0000e0 b6 74 47 be c1 50 bb b9 3a b1 36 bd bb 80 3c be
       -0.19478115 -0.00035727586 -0.04460261 -0.18408482
0000f0 6e 28 e5 bc 40 9c e9 bd b9 50 3e bd a8 42 15 be
       -0.02797338 -0.114067554 -0.046463702 -0.14576209
000100 58 05 57 bd 64 bb 64 3d ac 8b 2d be 5d 3e 4c be
       -0.05249533 0.055842772 -0.16947812 -0.19945665
000110 c1 c8 13 be ed e5 ab bd fb 52 87 3d 18 af 06 be
       -0.1443205 -0.08393464 0.06607624 -0.1315273
000120 7e 35 3a be 26 29 b3 3c 4d 16 e4 bd a0 b4 02 be
       -0.18184468 0.021870207 -0.11137066 -0.12764215
000130 70 44 ee bd 30 c1 63 be c9 cb 14 bd 16 6f 9d bd
       -0.11634147 -0.22241664 -0.036327157 -0.076872036
000140 3a 19 28 be de 0a 24 bd b0 11 d9 bc a0 8a af bd
       -0.16415873 -0.040049426 -0.026497692 -0.085713625
000150 fd 1b da bd 02 b9 3b be 55 21 ee bd b0 45 53 be
       -0.106498696 -0.18332294 -0.11627451 -0.20632052
000160 13 a0 4f bd 28 3a d5 bd 8c e7 88 bd 14 9f e3 bc
       -0.050689768 -0.10411483 -0.06684789 -0.027785815
000170 25 71 5e bd de c8 16 bd 61 4c 5a be 2e 0b 3b be
       -0.05430712 -0.036812656 -0.21318199 -0.18265983
000180 e1 de 24 be f2 b7 d9 bd 95 e4 01 be c6 2c 5e be
       -0.16100647 -0.10630788 -0.12684853 -0.21696767
000190 26 af b8 bd d6 e4 83 bd c9 a8 9a bd e4 40 b8 bd
       -0.09017782 -0.06440131 -0.075517245 -0.08996752
0001a0 2a 6a 93 bd 51 f2 84 bd e5 ad 07 be fb 66 38 be
       -0.071979836 -0.06491531 -0.13249929 -0.18008034
0001b0 95 d8 2d be b2 c3 d5 3b 97 a7 0b be 49 34 2b 3c
       -0.1697715 0.006523573 -0.13638149 0.0104494775
0001c0 62 9d 47 bd 27 84 05 bd fb 44 1f be e5 24 2b bd
       -0.048734076 -0.032596733 -0.15553658 -0.041783232
0001d0 b0 d3 eb bd ba be 13 bc ea f1 0a be 37 b1 4a bd
       -0.115149856 -0.009017641 -0.13568845 -0.04948541
0001e0 0a 56 1e bc f8 0f 60 be 97 71 93 3c 6e 23 b1 bd
       -0.009664068 -0.21881092 0.0179985 -0.08649336
0001f0 1e 38 45 be e5 b4 e3 bc 2d 40 3c be 3a df 3d be
       -0.19259688 -0.027796218 -0.18383856 -0.18542185
000200 c5 b6 ca 3b 47 af c6 bd 23 53 be bc 68 20 34 bd
       0.0061863386 -0.097014 -0.023233002 -0.043976218
000210 fb 18 41 bc 49 6f 5b bd 5c cb c4 bc f5 04 4d bd
       -0.011785741 -0.053572927 -0.02402275 -0.050053556
000220 62 c5 09 be 6e 55 64 be c0 b9 31 bd 9d 41 1b be
       -0.13454202 -0.22298214 -0.043390036 -0.15161748
000230 9c 61 9f bd f1 75 c9 bd 01 1b 9b bd dc 2f 5f bd
       -0.077822894 -0.09836949 -0.0757351 -0.054489
000240 8d 81 09 be 03 52 0b be 4d 6e c9 bd b9 b1 ed bd
       -0.13428326 -0.13605504 -0.09835491 -0.116061635
000250 53 3b 14 bd 81 7c 27 bd 43 31 ed bc 05 14 86 bd
       -0.03618939 -0.04089022 -0.028954154 -0.06546787
000260 ee 5c 3d be 5a c0 e7 bd 99 88 b3 bd 5d 2c 4b be
       -0.18492481 -0.11315985 -0.08766288 -0.19841142
000270 d3 c7 17 be 41 9e e7 bd fa dd 11 be 8b 9f ef bd
       -0.1482232 -0.113094814 -0.14244834 -0.11700352
000280 95 90 53 bd 09 50 1d 3d 42 22 64 be c1 58 7b bd
       -0.051651556 0.038406406 -0.22278693 -0.06136394
000290 6e d1 14 bd f9 ed c3 bc 0a 61 43 3d 16 49 59 be
       -0.03633254 -0.023917185 0.047699966 -0.21219286
0002a0 d4 f6 7f be d3 8a bf bd 59 2b 78 bc 90 40 d2 bb
       -0.24996501 -0.093526505 -0.015147054 -0.006416388
0002b0 cc 85 18 be 83 6a c4 bc e5 18 57 bd 28 c6 c1 bd
       -0.1489479 -0.02397657 -0.052513976 -0.094616234
0002c0 45 14 f1 bd 93 27 29 be 17 e3 51 bd 3a 1e 3e 3c
       -0.11771444 -0.16519003 -0.05124196 0.011603886
0002d0 9f ea b5 3a db 80 9f bd 9d 18 76 bd 76 54 7e bd
       0.0013879127 -0.07788249 -0.060082067 -0.062092267
0002e0 d3 1f b8 bc b6 88 2c be 57 c5 33 be 5a 54 30 be
       -0.022476112 -0.16849026 -0.17555748 -0.17219678
0002f0 2f da 93 bd c7 44 20 be 84 2b a7 bd 37 47 c1 bd
       -0.072193496 -0.15651236 -0.08162597 -0.09437411
000300 4e b8 fc bc 99 c8 3a bd dc 78 34 3d e7 f5 25 3c
       -0.030849602 -0.04560146 0.044060573 0.0101294285
000310 dc 08 c6 bb 1d 4b 10 3d 78 6e df 3b 80 63 a3 ba
       -0.0060435366 0.035227884 0.006818589 -0.0012465566
000320 73 44 91 bd 00 d0 31 3d 12 50 95 3d 5e a8 b2 3d
       -0.07093134 0.043411255 0.07290663 0.0872352
000330 d7 44 a7 bd 3a cc cf bd 30 ff 2b bd 96 55 f0 bc
       -0.08167427 -0.10146375 -0.041991413 -0.029337686
000340 2b d9 99 3d c1 c3 cb bd c5 5c ec 3c cc f0 b2 bd
       0.07512125 -0.099494465 0.02885283 -0.087373346
000350 0e a3 a0 bd 29 11 1b bc 1c 5a e3 3c 07 50 b9 3d
       -0.078436 -0.0094645405 0.027752928 0.09048467
000360 36 c6 85 bd 7f fa aa 3d 3f 23 0a be d7 27 56 3c
       -0.06531946 0.083485596 -0.13490008 0.013071022
000370 48 7f 01 bd 34 04 5a 3d 97 4c 1e bd 8b da 75 bd
       -0.031615525 0.053226665 -0.03864726 -0.060022872
000380 36 51 f1 ba 07 d6 41 bc 31 4b 62 bd 6a 69 10 3d
       -0.0018411044 -0.011830813 -0.05524749 0.03525678
000390 57 38 00 be b6 08 5c 3d ba e7 99 3d 79 37 c8 3c
       -0.12521492 0.053719245 0.075149015 0.024440514
0003a0 1c 58 4a bd d5 83 6e bd ef 21 cc 3c a9 ac 7e bd
       -0.049400434 -0.058231194 0.024918525 -0.06217638
0003b0 75 de 21 3d d8 96 9f 3d f8 26 0f 3c 92 23 9c 3d
       0.039518792 0.07792443 0.008737318 0.07623972
0003c0 c3 61 6e bd f4 a6 c1 3d 44 a5 59 3d cf cd 0b bd
       -0.0581987 0.09455672 0.053136125 -0.03413182
0003d0 71 db 86 bd 20 12 a0 3c 60 5f 0f bd 96 24 a8 bd
       -0.06584824 0.019539893 -0.035003066 -0.08210103
0003e0 cb f1 98 bd 6a 48 bb 3d 6a c6 77 3b fc 08 b7 bd
       -0.07467993 0.09144671 0.0037807473 -0.089372605
0003f0 fa 9e a6 3d 90 f5 e8 bd c0 e7 37 3d 68 98 59 3d
       0.08135791 -0.11374962 0.04489875 0.05312386
